…
een the predicted probabilities and the true class labels.</p> In\u00a0[11]: Copied! <pre>model = LeNet(input_tensor_shape=(1,28,28))\nsummary(model, input_size=(BATCH_SIZE, 1,28,28))\n</pre> model = LeNet(input_tensor_shape=(1,28,28)) summary(model, input_size=(BATCH_SIZE, 1,28,28)) Out[11]: <pre>==========================================================================================\nLayer (type:depth-idx)                   Output Shape              Param #\n==========================================================================================\nLeNet                                    [32, 10]                  --\n\u251c\u2500Sequential: 1-1                        [32, 10]                  --\n\u2502    \u2514\u2500Conv2d: 2-1                       [32, 16, 13, 13]          272\n\u2502    \u2514\u2500BatchNorm2d: 2-2                  [32, 16, 13, 13]          32\n\u2502    \u2514\u2500ReLU: 2-3                         [32, 16, 13, 13]          --\n\u2502    \u2514\u2500Conv2d: 2-4                       [32, 32, 5, 5]            8,224\n\u2502    \u2514\u2500BatchNorm2d: 2-5                  [32, 32, 5, 5]            64\n\u2502    \u2514\u2500ReLU: 2-6                         [32, 32, 5, 5]            --\n\u2502    \u2514\u2500AdaptiveAvgPool2d: 2-7            [32, 32, 1, 1]            --\n\u2502    \u2514\u2500Flatten: 2-8                      [32, 32]                  --\n\u2502    \u2514\u2500Linear: 2-9                       [32, 10]                  330\n==========================================================================================\nTotal params: 8,922\nTrainable params: 8,922\nNon-trainable params: 0\nTotal mult-adds (Units.MEGABYTES): 8.06\n==========================================================================================\nInput size (MB): 0.10\nForward/backward pass size (MB): 1.80\nParams size (MB): 0.04\nEstimated Total 
…
